…
, weight_decay=4e-05, workers=32)
2022-02-06 00:29:50,950 gpu device = 0
2022-02-06 00:29:50,950 args = Namespace(batch_size=512, data='/home/mzhang3/Data/imagenet', epochs=240, gpu=0, grad_clip=5.0, label_smooth=0.1, learning_rate=0.25, local_rank=0, model_id='0 2 0 4 2 3 3 4 4 3 4 4 3 3 5 1 0 4 3 0 2', momentum=0.9, report_freq=100, save='eval-eval_models', seed=0, total_iters=600480, weight_decay=4e-05, workers=32)
2022-02-06 00:29:55,054 rngs:[0, 2, 0, 4, 2, 3, 3, 4, 4, 3, 4, 4, 3, 3, 5, 1, 0, 4, 3, 0, 2], arch:['<bound method Module.type of InvertedResidual(\n  (conv): Sequential(\n    (0): Conv2d(24, 72, kernel_size=(1, 1), stride=(1, 1), bias=False)\n    (1): BatchNorm2d(72, eps=1e-05, momentum=0.1, affine=True, track_running_stats=True)\n    (2): ReLU6(inplace=True)\n    (3): Conv2d(72, 72, kernel_size=(3, 3), stride=(2, 2), padding=(1, 1), groups=72, bias=False)\n    (4): BatchNorm2d(72, eps=1e-05, momentum=0.1, affine=True, track_running_stats=True)\n    (5): ReLU6(inplace=True)\n    (6): Conv2d(72, 32, kernel_size=(1, 1), stride=(1, 1), bias=False)\n    (7): BatchNorm2d(32, eps=1e-05, momentum=0.1, affine=True, track_running_stats=True)\n  )\n)>(reduce, oup=32)', '<bound method Module.type of InvertedResidual(\n  (conv): Sequential(\n    (0): Conv2d(32, 96, kernel_size=(1, 1), stride=(1, 1), bias=False)\n    (1): BatchNorm2d(96, eps=1e-05, momentum=0.1, affine=True, track_running_stats=True)\n    (2): ReLU6(inplace=True)\n    (3): Conv2d(96, 96, kernel_size=(5, 5), stride=(1, 1), padding=(2, 2), groups=96, bias=False)\n    (4): BatchNorm2d(96, eps=1e-05, momentum=0.1, affine=True, track_running_stats=True)\n    (5): ReLU6(inplace=True)\n    (6): Conv2d(96, 32, kernel_size=(1, 1), stride=(1, 1), bias=False)\n    (7): BatchNorm2d(32, eps=1e-05, momentum=0.1, affine=True, track_running_stats=True)\n  )\n)>(normal, oup=32)', '<bound method Module.type of InvertedResidual(\n  (conv): Sequential(\n    (0): Conv2d(32, 96, kernel_size=(1, 1), stride=(1, 1), bias=False)\n    (1): BatchNorm2d(96, eps=1e-05, momentum=0.1, affine=True, track_running_stats=True)\n    (2): ReLU6(inplace=True)\n    (3): Conv2d(96, 96, kernel_size=(3, 3), stride=(1, 1), padding=(1, 1), groups=96, bias=False)\n    (4): BatchNorm2d(96, eps=1e-05, momentum=0.1, affine=True, track_running_stats=True)\n    (5): ReLU6(inplace=True)\n    (6): Conv2d(96, 32, kernel_size=(1, 1), stride=(1, 1), bias=False)\n    (7): BatchNorm2d(32, eps=1e-05, momentum=0.1, affine=True, track_running_stats=True)\n  )\n)>(normal, oup=32)', '<bound method Module.type of InvertedResidual(\n  (conv): Sequential(\n    (0): Conv2d(32, 96, kernel_size=(1, 1), stride=(1, 1), bias=False)\n    (1): BatchNorm2d(96, eps=1e-05, momentum=0.1, affine=True, track_running_stats=True)\n    (2): ReLU6(inplace=True)\n    (3): Conv2d(96, 96, kernel_size=(7, 7), stride=(1, 1), padding=(3, 3), groups=96, bias=False)\n    (4): BatchNorm2d(96, eps=1e-05, momentum=0.1, affine=True, track_running_stats=True)\n    (5): ReLU6(inplace=True)\n    (6): Conv2d(96, 32, kernel_size=(1, 1), stride=(1, 1), bias=False)\n    (7): BatchNorm2d(32, eps=1e-05, momentum=0.1, affine=True, track_running_stats=True)\n  )\n)>(normal, oup=32)', '<bound method Module.type of InvertedResidual(\n  (conv): Sequential(\n    (0): Conv2d(32, 96, kernel_size=(1, 1), stride=(1, 1), bias=False)\n    (1): BatchNorm2d(96, eps=1e-05, momentum=0.1, affine=True, track_running_stats=True)\n    (2): ReLU6(inplace=True)\n    (3): Conv2d(96, 96, kernel_size=(5, 5), stride=(2, 2), padding=(2, 2), groups=96, bias=False)\n    (4): BatchNorm2d(96, eps=1e-05, momentum=0.1, affine=True, track_running_stats=True)\n    (5): ReLU6(inplace=True)\n    (6): Conv2d(96, 56, kernel_size=(1, 1), stride=(1, 1), bias=False)\n    (7): BatchNorm2d(56, eps=1e-05, momentum=0.1, affine=True, track_running_stats=True)\n  )\n)>(reduce, oup=56)', '<bound method Module.type of InvertedResidual(\n  (conv): Sequential(\n    (0): Conv2d(56, 336, kernel_size=(1, 1), stride=(1, 1), bias=False)\n    (1): BatchNorm2d(336, eps=1e-05, momentum=0.1, affine=True, track_running_stats=True)\n    (2): ReLU6(inplace=True)\n    (3): Conv2d(336, 336, kernel_size=(5, 5), stride=(1, 1), padding=(2, 2), groups=336, bias=False)\n    (4): BatchNorm2d(336, eps=1e-05, momentum=0.1, affine=True, track_running_stats=True)\n    (5): ReLU6(inplace=True)\n    (6): Conv2d(336, 56, kernel_size=(1, 1), stride=(1, 1), bias=False)\n    (7): BatchNorm2d(56, eps=1e-05, momentum=0.1, affine=True, track_running_stats=True)\n  )\n)>(normal, oup=56)', '<bound method Module.type of InvertedResidual(\n  (conv): Sequential(\n    (0): Conv2d(56, 336, kernel_size=(1, 1), stride=(1, 1), bias=False)\n    (1): BatchNorm2d(336, eps=1e-05, momentum=0.1, affine=True, track_running_stats=True)\n    (2): ReLU6(inplace=True)\n    (3): Conv2d(336, 336, kernel_size=(5, 5), stride=(1, 1), padding=(2, 2), groups=336, bias=False)\n    (4): BatchNorm2d(336, eps=1e-05, momentum=0.1, affine=True, track_running_stats=True)\n    (5): ReLU6(inplace=True)\n    (6): Conv2d(336, 56, kernel_size=(1, 1), stride=(1, 1), bias=False)\n    (7): BatchNorm2d(56, eps=1e-05, momentum=0.1, affine=True, track_running_stats=True)\n  )\n)>(normal, oup=56)', '<bound method Module.type of InvertedResidual(\n  (conv): Sequential(\n    (0): Conv2d(56, 168, kernel_size=(1, 1), stride=(1, 1), bias=False)\n    (1): BatchNorm2d(168, eps=1e-05, momentum=0.1, affine=True, track_running_stats=True)\n    (2): ReLU6(inplace=True)\n    (3): Conv2d(168, 168, kernel_size=(7, 7), stride=(1, 1), padding=(3, 3), groups=168, bias=False)\n    (4): BatchNorm2d(168, eps=1e-05, momentum=0.1, affine=True, track_running_stats=True)\n    (5): ReLU6(inplace=True)\n    (6): Conv2d(168, 56, kernel_size=(1, 1), stride=(1, 1), bias=False)\n    (7): BatchNorm2d(56, eps=1e-05, momentum=0.1, affine=True, track_running_stats=True)\n  )\n)>(normal, oup=56)', '<bound method Module.type of InvertedResidual(\n  (conv): Sequential(\n    (0): Conv2d(56, 168, kernel_size=(1, 1), stride=(1, 1), bias=False)\n    (1): BatchNorm2d(168, eps=1e-05, momentum=0.1, affine=True, track_running_stats=True)\n    (2): ReLU6(inplace=True)\n    (3): Conv2d(168, 168, kernel_size=(7, 7), stride=(2, 2), padding=(3, 3), groups=168, bias=False)\n    (4): BatchNorm2d(168, eps=1e-05, momentum=0.1, affine=True, track_running_stats=True)\n    (5): ReLU6(inplace=True)\n    (6): Conv2d(168, 112, kernel_size=(1, 1), stride=(1, 1), bias=False)\n    (7): BatchNorm2d(112, eps=1e-05, momentum=0.1, affine=True, track_running_stats=True)\n  )\n)>(reduce, oup=112)', '<bound method Module.type of InvertedResidual(\n  (conv): Sequential(\n    (0): Conv2d(112, 672, kernel_size=(1, 1), stride=(1, 1), bias=False)\n    (1): BatchNorm2d(672, eps=1e-05, momentum=0.1, affine=True, track_running_stats=True)\n    (2): ReLU6(inplace=True)\n    (3): Conv2d(672, 672, kernel_size=(5, 5), stride=(1, 1), padding=(2, 2), groups=672, bias=False)\n    (4): BatchNorm2d(672, eps=1e-05, momentum=0.1, affine=True, track_running_stats=True)\n    (5): ReLU6(inplace=True)\n    (6): Conv2d(672, 112, kernel_size=(1, 1), stride=(1, 1), bias=False)\n    (7): BatchNorm2d(112, eps=1e-05, momentum=0.1, affine=True, track_running_stats=True)\n  )\n)>(normal, oup=112)', '<bound method Module.type of InvertedResidual(\n  (conv): Sequential(\n    (0): Conv2d(112, 336, kernel_size=(1, 1), stride=(1, 1), bias=False)\n    (1): BatchNorm2d(336, eps=1e-05, momentum=0.1, affine=True, track_running_stats=True)\n    (2): ReLU6(inplace=True)\n    (3): Conv2d(336, 336, kernel_size=(7, 7), stride=(1, 1), padding=(3, 3), groups=336, bias=False)\n    (4): BatchNorm2d(336, eps=1e-05, momentum=0.1, affine=True, track_running_stats=True)\n    (5): ReLU6(inplace=True)\n    (6): Conv2d(336, 112, kernel_size=(1, 1), stride=(1, 1), bias=False)\n    (7): BatchNorm2d(112, eps=1e-05, momentum=0.1, affine=True, track_running_stats=True)\n  )\n)>(normal, oup=112)', '<bound method Module.type of InvertedResidual(\n  (conv): Sequential(\n    (0): Conv2d(112, 336, kernel_size=(1, 1), stride=(1, 1), bias=False)\n    (1): BatchNorm2d(336, eps=1e-05, momentum=0.1, affine=True, track_running_stats=True)\n    (2): ReLU6(inplace=True)\n    (3): Conv2d(336, 336, kernel_size=(7, 7), stride=(1, 1), padding=(3, 3), groups=336, bias=False)\n    (4): BatchNorm2d(336, eps=1e-05, momentum=0.1, affine=True, track_running_stats=True)\n    (5): ReLU6(inplace=True)\n    (6): Conv2d(336, 112, kernel_size=(1, 1), stride=(1, 1), bias=False)\n    (7): BatchNorm2d(112, eps=1e-05, momentum=0.1, affine=True, track_running_stats=True)\n  )\n)>(normal, oup=112)', '<bound method Module.type of InvertedResidual(\n  (conv): Sequential(\n    (0): Conv2d(112, 672, kernel_size=(1, 1), stride=(1, 1), bias=False)\n    (1): BatchNorm2d(672, eps=1e-05, momentum=0.1, affine=True, track_running_stats=True)\n    (2): ReLU6(inplace=True)\n    (3): Conv2d(672, 672, kernel_size=(5, 5), stride=(1, 1), padding=(2, 2), groups=672, bias=False)\n    (4): BatchNorm2d(672, eps=1e-05, momentum=0.1, affine=True, track_running_stats=True)\n    (5): ReLU6(inplace=True)\n    (6): Conv2d(672, 128, kernel_size=(1, 1), stride=(1, 1), bias=False)\n    (7): BatchNorm2d(128, eps=1e-05, momentum=0.1, affine=True, track_running_stats=True)\n  )\n)>(normal, oup=128)', '<bound method Module.type of InvertedResidual(\n  (conv): Sequential(\n    (0): Conv2d(128, 768, kernel_size=(1, 1), stride=(1, 1), bias=False)\n    (1): BatchNorm2d(768, eps=1e-05, momentum=0.1, affine=True, track_running_stats=True)\n    (2): ReLU6(inplace=True)\n    (3): Conv2d(768, 768, kernel_size=(5, 5), stride=(1, 1), padding=(2, 2), groups=768, bias=False)\n    (4): BatchNorm2d(768, eps=1e-05, momentum=0.1, affine=True, track_running_stats=True)\n    (5): ReLU6(inplace=True)\n    (6): Conv2d(768, 128, kernel_size=(1, 1), stride=(1, 1), bias=False)\n    (7): BatchNorm2d(128, eps=1e-05, momentum=0.1, affine=True, track_running_stats=True)\n  )\n)>(normal, oup=128)', '<bound method Module.type of InvertedResidual(\n  (conv): Sequential(\n    (0): Conv2d(128, 768, kernel_size=(1, 1), stride=(1, 1), bias=False)\n    (1): BatchNorm2d(768, eps=1e-05, momentum=0.1, affine=True, track_running_stats=True)\n    (2): ReLU6(inplace=True)\n    (3): Conv2d(768, 768, kernel_size=(7, 7), stride=(1, 1), padding=(3, 3), groups=768, bias=False)\n    (4): BatchNorm2d(768, eps=1e-05, momentum=0.1, affine=True, track_running_stats=True)\n    (5): ReLU6(inplace=True)\n    (6): Conv2d(768, 128, kernel_size=(1, 1), stride=(1, 1), bias=False)\n    (7): BatchNorm2d(128, eps=1e-05, momentum=0.1, affine=True, track_running_stats=True)\n  )\n)>(normal, oup=128)', '<bound method Module.type of InvertedResidual(\n  (conv): Sequential(\n    (0): Conv2d(128, 768, kernel_size=(1, 1), stride=(1, 1), bias=False)\n    (1): BatchNorm2d(768, eps=1e-05, momentum=0.1, affine=True, track_running_stats=True)\n    (2): ReLU6(inplace=True)\n    (3): Conv2d(768, 768, kernel_size=(3, 3), stride=(1, 1), padding=(1, 1), groups=768, bias=False)\n    (4): BatchNorm2d(768, eps=1e-05, momentum=0.1, affine=True, track_running_stats=True)\n    (5): ReLU6(inplace=True)\n    (6): Conv2d(768, 128, kernel_size=(1, 1), stride=(1, 1), bias=False)\n    (7): BatchNorm2d(128, eps=1e-05, momentum=0.1, affine=True, track_running_stats=True)\n  )\n)>(normal, oup=128)', '<bound method Module.type of InvertedResidual(\n  (conv): Sequential(\n    (0): Conv2d(128, 384, kernel_size=(1, 1), stride=(1, 1), bias=False)\n    (1): BatchNorm2d(384, eps=1e-05, momentum=0.1, affine=True, track_running_stats=True)\n    (2): ReLU6(inplace=True)\n    (3): Conv2d(384, 384, kernel_size=(3, 3), stride=(2, 2), padding=(1, 1), groups=384, bias=False)\n    (4): BatchNorm2d(384, eps=1e-05, momentum=0.1, affine=True, track_running_stats=True)\n    (5): ReLU6(inplace=True)\n    (6): Conv2d(384, 256, kernel_size=(1, 1), stride=(1, 1), bias=False)\n    (7): BatchNorm2d(256, eps=1e-05, momentum=0.1, affine=True, track_running_stats=True)\n  )\n)>(reduce, oup=256)', '<bound method Module.type of InvertedResidual(\n  (conv): Sequential(\n    (0): Conv2d(256, 768, kernel_size=(1, 1), stride=(1, 1), bias=False)\n    (1): BatchNorm2d(768, eps=1e-05, momentum=0.1, affine=True, track_running_stats=True)\n    (2): ReLU6(inplace=True)\n    (3): Conv2d(768, 768, kernel_size=(7, 7), stride=(1, 1), padding=(3, 3), groups=768, bias=False)\n    (4): BatchNorm2d(768, eps=1e-05, momentum=0.1, affine=True, track_running_stats=True)\n    (5): ReLU6(inplace=True)\n    (6): Conv2d(768, 256, kernel_size=(1, 1), stride=(1, 1), bias=False)\n    (7): BatchNorm2d(256, eps=1e-05, momentum=0.1, affine=True, track_running_stats=True)\n  )\n)>(normal, oup=256)', '<bound method Module.type of InvertedResidual(\n  (conv): Sequential(\n    (0): Conv2d(256, 1536, kernel_size=(1, 1), stride=(1, 1), bias=False)\n    (1): BatchNorm2d(1536, eps=1e-05, momentum=0.1, affine=True, track_running_stats=True)\n    (2): ReLU6(inplace=True)\n    (3): Conv2d(1536, 1536, kernel_size=(5, 5), stride=(1, 1), padding=(2, 2), groups=1536, bias=False)\n    (4): BatchNorm2d(1536, eps=1e-05, momentum=0.1, affine=True, track_running_stats=True)\n    (5): ReLU6(inplace=True)\n    (6): Conv2d(1536, 256, kernel_size=(1, 1), stride=(1, 1), bias=False)\n    (7): BatchNorm2d(256, eps=1e-05, momentum=0.1, affine=True, track_running_stats=True)\n  )\n)>(normal, oup=256)', '<bound method Module.type of InvertedResidual(\n  (conv): Sequential(\n    (0): Conv2d(256, 768, kernel_size=(1, 1), stride=(1, 1), bias=False)\n    (1): BatchNorm2d(768, eps=1e-05, momentum=0.1, affine=True, track_running_stats=True)\n    (2): ReLU6(inplace=True)\n    (3): Conv2d(768, 768, kernel_size=(3, 3), stride=(1, 1), padding=(1, 1), groups=768, bias=False)\n    (4): BatchNorm2d(768, eps=1e-05, momentum=0.1, affine=True, track_running_stats=True)\n    (5): ReLU6(inplace=True)\n    (6): Conv2d(768, 256, kernel_size=(1, 1), stride=(1, 1), bias=False)\n    (7): BatchNorm2d(256, eps=1e-05, momentum=0.1, affine=True, track_running_stats=True)\n  )\n)>(normal, oup=256)', '<bound method Module.type of InvertedResidual(\n  (conv): Sequential(\n    (0): Conv2d(256, 768, kernel_size=(1, 1), stride=(1, 1), bias=False)\n    (1): BatchNorm2d(768, eps=1e-05, momentum=0.1, affine=True, track_running_stats=True)\n    (2): ReLU6(inplace=True)\n    (3): Conv2d(768, 768, kernel_size=(5, 5), stride=(1, 1), padding=(2, 2), groups=768, bias=False)\n    (4): BatchNorm2d(768, eps=1e-05, momentum=0.1, affine=True, track_running_stats=True)\n    (5): ReLU6(inplace=True)\n    (6): Conv2d(768, 432, kernel_size=(1, 1), stride=(1, 1), bias=False)\n    (7): BatchNorm2d(432, eps=1e-05, momentum=0.1, affine=True, track_running_stats=True)\n  )\n)>(normal, oup=432)']
2022-02-06 00:29:55,055 batch_size:256
2022-02-06 00:29:55,055 batch_size:256
2022-02-06 00:30:10,092 Train epoch:000 iters:000 6.935138e+00 0.000000 1.171875 0.250000 0.001199
2022-02-06 00:31:17,518 Train epoch:000 iters:100 6.904150e+00 0.262995 1.191213 0.249958 0.000194
2022-02-06 00:32:24,507 Train epoch:000 iters:200 6.743267e+00 0.452814 2.091107 0.249916 0.000116
…
